hardware_acceleration/siam_track/XOH/data/Add_0_param0.npy (npy, 592 bytes, 1 tensors)

array f4 [1, 128, 1, 1]
000000 35 d4 4a bc c0 27 71 3b e2 66 ee 3a 9c 8c b7 3b
       -0.012379696 0.0036797374 0.001818862 0.0056014787
000010 49 3b 6f 3b 2a a4 87 3b 7e 53 a3 3b c2 57 c1 3b
       0.0036503843 0.004139443 0.0049843183 0.005900354
000020 f5 ce 8e 3a 01 58 8e 3a e3 10 72 3b ff 9a a7 3b
       0.0010895418 0.0010859967 0.0036936335 0.0051149125
000030 6d 9c 46 bc 12 9c d9 3b 1f 10 9d 3b c1 16 cf 3b
       -0.012122256 0.0066409195 0.0047931815 0.006319851
000040 3e fc 9d 3a 86 23 22 bb 85 b0 f7 38 e7 0a 42 3a
       0.0012053323 -0.0024740412 0.00011810757 0.0007402137
000050 7b 1b d7 bb d9 b7 72 ba 23 2b fd 3a 16 c2 0e bb
       -0.006564555 -0.0009258963 0.0019315224 -0.0021783165
000060 70 74 83 3b ed 11 cb 3b d9 4e c8 3b 02 f4 5c bb
       0.004011683 0.0061972053 0.006112915 -0.0033714776
000070 06 6a e1 ba e7 f0 9f b9 70 7a b4 3a ed df 4f b9
       -0.0017197735 -0.0003050633 0.0013769399 -0.00019824477
000080 a3 2e fa 3b c1 dd 29 3b 25 e0 7c bb d2 a9 81 3b
       0.007634954 0.002591953 -0.003858575 0.0039570117
000090 83 aa d1 bb 54 4c 06 bc 8b fc 0a bc e5 93 22 bb
       -0.0063985004 -0.008196909 -0.0084830625 -0.002480739
0000a0 77 7b f0 3a bc 70 9b 3b 1c 69 d4 3b 12 cf 01 bc
       0.0018347342 0.0047436636 0.0064822566 -0.007922905
0000b0 c2 1e 53 bb 61 9e db bb 9d 74 32 ba ab da 02 3b
       -0.0032214378 -0.00670223 -0.0006807538 0.0019966762
0000c0 e5 0a 88 b9 13 23 ad ba 3a 25 85 3c 54 ab 4d ba
       -0.00025948058 -0.0013209305 0.016253103 -0.0007845659
0000d0 3f 36 20 3b 51 32 14 b9 d5 10 2d 3b 9d d3 95 3b
       0.0024446396 -0.00014133124 0.0026407738 0.0045723454
0000e0 d7 d8 4f 3b ce 2e db 3b 13 f6 e9 3a e1 7f e7 bb
       0.003171494 0.006688929 0.0017849825 -0.007064805
0000f0 a6 af b7 3b 8c 1b 7c ba 80 3f 03 bc a1 4d 4d 3b
       0.0056056557 -0.0009617142 -0.008010745 0.0031326788
000100 f6 7f af 3b 84 ab 45 bc 97 a7 4e 3b 3e 0e 57 3b
       0.0053558303 -0.012064818 0.0031532997 0.0032814885
000110 cb 08 a1 bb 71 d4 fb 3a 53 43 9e 3a bc 63 cd ba
       -0.0049143783 0.0019213093 0.0012074508 -0.0015669982
000120 b5 c5 8f 3b c2 98 0e 3b ca 21 6d ba d7 69 c6 b9
       0.004387582 0.0021758531 -0.00090458675 -0.0003784436
000130 fc 4c c7 3b b6 de da 3b 0f b2 04 bb a4 43 08 b9
       0.0060821753 0.0066793812 -0.0020247733 -0.00012995169
000140 dc f8 a8 ba 2e 5e 13 3b 47 4c 3a bb cc 10 07 39
       -0.0012891549 0.0022486555 -0.0028426812 0.0001288086
000150 d5 55 80 bb c8 f8 e0 3a e8 da 18 3c f2 85 10 bc
       -0.003916482 0.0017163986 0.009329535 -0.008820998
000160 8a f2 da ba 27 20 fc 3a 6b 30 38 3a fd a9 5b 3b
       -0.0016704362 0.0019235656 0.0007026258 0.003351807
000170 67 f5 53 3b 2c b0 97 bb 9c d5 03 3c 8d 03 40 3b
       0.0032342316 -0.0046291556 0.008046534 0.0029298991
000180 30 fa 91 bb ff 1c 69 bb 4d 71 fc 3b 65 88 b4 ba
       -0.0044548735 -0.0035570262 0.007703936 -0.0013773559
000190 fc 4a cc 3b de da d6 b8 fc 4f fc ba 26 0c 8b 3b
       0.006234525 -0.000102450824 -0.0019249911 0.0042433916
0001a0 40 ec a1 3b a6 90 02 3b ee 62 ee 39 2d 36 ff b9
       0.0049414933 0.0019922643 0.00045468606 -0.00048677754
0001b0 83 b0 f4 3b 01 48 b7 bb ed e2 84 3b db aa b3 3b
       0.007467331 -0.0055933003 0.004055372 0.005483014
0001c0 dd 53 dc 3b 17 7e 2c bc 88 af 39 3b f8 44 8f 3b
       0.0067238645 -0.010528109 0.0028333385 0.0043722354
0001d0 bf 08 b3 3a 4a 6d 63 b9 a6 9c 87 ba b2 f1 28 3b
       0.0013659223 -0.0002168912 -0.0010346367 0.0025778827
0001e0 a3 04 11 3c 74 bd 52 bb 12 29 6e 3b 77 0c 78 3b
       0.008851203 -0.003215638 0.0036340398 0.0037849227
0001f0 ec fb 19 3c 7a 34 c2 ba 95 1d 86 3b 76 4a 87 3a
       0.009398442 -0.0014816665 0.004092882 0.0010321874
