hardware_acceleration/siam_track/XOH/data/Crossing/parameters/kernel.npy (npy, 32896 bytes, 1 tensors)

array f4 [1, 128, 8, 8]
0.28839755 0.47143078 0.77778786 0.053746413 -0.0902246 -0.28358144 -0.9819544 -1.2325089
0.84419364 0.99039716 1.3210286 0.33861995 -0.3686806 -0.8823455 -1.4808315 -1.5689996
1.0481527 1.1798474 1.5093634 0.5816415 -0.3368743 -1.6197808 -1.7528703 -1.9253008
0.6943629 0.98816484 1.3958048 0.78057855 -0.30255553 -1.5009208 -1.668887 -1.5477949
0.07829952 0.96835434 1.6404996 1.2674577 0.20915772 -0.7129838 -0.8304491 -0.80505854
-0.51321024 0.59866065 1.1282299 0.721985 -0.11310374 -0.37593508 -0.4398296 -0.62983805
-1.1326219 0.028914165 0.86512005 0.31908882 -0.29808947 -0.14435254 -0.4189031 -0.5405533
-1.1315053 -0.067066275 0.83108014 0.57327086 0.1332659 -0.061764646 -0.33547878 -0.8100817
1.1225263 1.119736 1.9464552 2.611346 3.2737255 2.981598 1.4277676 0.41634154
0.7486475 1.1367561 1.9316676 2.905148 3.9874434 3.6693673 2.4177096 1.0050611
0.9107546 1.4280467 1.8515902 2.910728 3.7382843 3.2304785 2.4710016 0.7701318
0.61248857 0.87476176 0.8822953 1.82062 2.849903 2.5745163 1.963196 0.79663837
-0.17293619 0.22103183 -0.08839513 0.90880126 1.9609637 1.7352414 1.4743631 0.5552906
-0.6355417 -0.82610834 -0.8676813 0.01484023 0.78966284 0.7475317 0.88982856 0.5301794
-0.6330308 -0.9893319 -1.3517706 -1.1126555 -0.47343457 -0.5588126 -0.32834697 -0.09509123
-0.5967585 -0.6656749 -0.9000471 -1.1327449 -0.768631 -1.0334156 -0.61796343 -0.6631638
-0.32881308 -0.6912526 -1.0280223 -1.5497788 -1.9197515 -1.9147292 -0.70297074 0.12904945
-0.7082723 -0.6393558 -0.8371767 -1.3299156 -1.9445839 -1.5712628 -0.7492873 0.15332362
-1.0096073 -0.82127297 -0.69627446 -0.98338014 -1.5238304 -0.93064636 -0.17675024 0.799241
-0.5230068 -0.16028845 -0.130992 -0.27412638 -0.7568208 -0.3469489 -0.17730826 0.5369676
0.28808722 0.39299658 0.41280648 0.19796577 -0.49650037 -0.350297 -0.105322525 0.4995801
0.61537075 0.58635336 0.43959203 0.6123018 0.18094592 0.27971694 0.11816776 0.33272964
0.89299005 0.48032817 0.2007559 0.6134177 0.5657063 0.60225743 0.46833014 0.42368796
1.0023633 0.4747478 0.33272988 0.5690545 0.65192205 0.84248877 0.48925647 0.78919667
-0.7178821 -0.5839554 -0.4921595 -0.2466271 0.1448294 0.4182632 0.48355252 0.37669015
-0.6062765 -0.27173853 -0.15176238 0.42914492 0.6752354 0.90374804 0.8328783 0.8153003
-0.15845893 0.017878054 0.4534192 0.866639 0.80497694 0.6152473 0.44923398 0.21876837
-0.17296767 -0.14534512 0.14371358 0.46764892 0.5683731 0.28656873 0.21151401 0.07647115
-0.5753058 -0.636689 -0.24913837 0.09125892 0.06307837 -0.037924692 -0.0016529579 -0.36213923
-0.43021846 -0.3705095 -0.42296416 -0.24634816 -0.051875494 -0.220679 -0.17324662 -0.33619094
-0.16431813 -0.37497395 -0.8978461 -0.4405421 -0.17687362 -0.1606908 -0.31080055 -0.32168204
-0.12637225 -0.54963666 -0.9575555 -0.84176457 -0.6330618 -0.25109166 0.0047643464 -0.14757729
00000000: d8a8 933e 605f f13e 1b1d 473f 3325 5c3d
00000010: adc7 b8bd 9631 91be 5d61 7bbf dac2 9dbf
00000020: 131d 583f ab8a 7d3f 7717 a93f 985f ad3e
00000030: b4c3 bcbe 65e1 61bf e38b bdbf fbd4 c8bf
00000040: de29 863f 3d05 973f d232 c13f 75e6 143f
00000050: ca7a acbe fa54 cfbf 0e5e e0bf 4270 f6bf
00000060: c4c1 313f 5ff8 7c3f bba9 b23f ffd3 473f
00000070: 8fe8 9abe 2c1e c0bf 179e d5bf 251e c6bf
00000080: 805b a03d 12e6 773f e4fb d13f 0e3c a23f
00000090: 712d 563e 1b86 36bf 5098 54bf 5118 4ebf
000000a0: bf61 03bf d341 193f d669 903f 02d4 383f
000000b0: efa2 e7bd 907a c0be 5831 e1be 113d 21bf
000000c0: c1f9 90bf 66dd ec3c 8278 5d3f 9c5f a33e
000000d0: 2f9f 98be 27d1 13be 787a d6be b361 0abf
000000e0: 2ad5 90bf 0b5a 89bd abc1 543f e1c1 123f
000000f0: db76 083e edfc 7cbd e0c3 abbe 8461 4fbf
00000100: f1ae 8f3f 8253 8f3f 7225 f93f 4b20 2740
00000110: b884 5140 80d2 3e40 17c1 b63f b82a d53e
00000120: 5da7 3f3f 3981 913f e240 f73f f2ed 3940
00000130: 4632 7f40 ead6 6a40 c1bb 1a40 d8a5 803f
00000140: 3727 693f 3cca b63f e800 ed3f 5e49 3a40
00000150: 0d40 6f40 29c0 4e40 e424 1e40 5c27 453f
00000160: 0dcc 1c3f 63f0 5f3f 1bde 613f 130a e93f
00000170: d064 3640 e0c4 2440 024a fb3f 7ef0 4b3f
00000180: 2f16 31be 2b56 623e 8208 b5bd 33a7 683f
00000190: dc00 fb3f 641c de3f eeb7 bc3f 8627 0e3f
000001a0: dcb2 22bf d67b 53bf 5d20 5ebf 7024 733c
000001b0: 5827 4a3f 3d5e 3f3f cecb 633f d6b9 073f
000001c0: 4e0e 22bf db44 7dbf d206 adbf 7f6b 8ebf
000001d0: 0466 f2be 580e 0fbf 181d a8be 31bf c2bd
000001e0: 2ac5 18bf ac69 2abf 7d69 66bf c9fd 90bf
000001f0: 00c5 44bf f646 84bf da32 1ebf 1ac5 29bf
00000200: 305a a8be eef5 30bf 3c96 83bf 275f c6bf
00000210: 6bba f5bf d915 f5bf e4f5 33bf 8a25 043e
00000220: 5551 35bf d2ac 23bf 3651 56bf ad3a aabf
00000230: 20e8 f8bf 241f c9bf 4bd1 3fbf de00 1d3e
00000240: d03a 81bf f23e 52bf 0b3f 32bf cdbe 7bbf
00000250: e00c c3bf d73e 6ebf 04fe 34be 0f9b 4c3f
00000260: c6e3 05bf a822 24be c422 06be 4b5a 8cbe
00000270: 02bf 41bf 49a3 b1be 4c90 35be b576 093f
00000280: 2b80 933e d936 c93e 5f5b d33e 8ab7 4a3e
00000290: 4c35 febe 215a b3be 56b3 d7bd f6c8 ff3e
000002a0: f088 1d3f 411b 163f 3512 e13e d0bf 1c3f
000002b0: e349 393e 0f37 8f3e f001 f23d 8a5b aa3e
000002c0: ff9a 643f 93ed f53e f492 4d3e f108 1d3f
000002d0: 21d2 103f 8b2d 1a3f f8c8 ef3e a1ed d83e
000002e0: 714d 803f 2512 f33e 925b aa3e 8ead 113f
000002f0: 5de4 263f 58ad 573f d37f fa3e cb08 4a3f
00000300: 1fc7 37bf 1a7e 15bf 54fc fbbe d18b 7cbe
00000310: 294e 143e 9826 d63e 3294 f73e 88dd c03e
00000320: f034 1bbf 5021 8bbe 9967 1bbe e2b8 db3e
00000330: 3adc 2c3f 085c 673f 8337 553f 85b7 503f
00000340: 0f43 22be ff74 923c 9026 e83e 0edc 5d3f
00000350: f812 4e3f d980 1d3f ff01 e63e d104 603e
00000360: 701e 31be 5ad5 14be a729 133e ae6f ef3e
00000370: e680 113f 23b9 923e 2197 583e e89c 9c3d
00000380: 3e47 13bf 0dfe 22bf 211e 7fbe f5e5 ba3d
00000390: 3c2f 813d ec56 1bbd 10a8 d8ba 506a b9be
000003a0: 9845 dcbe 6cb3 bdbe c28e d8be b142 7cbe
000003b0: 667b 54bd adf9 61be 9067 31be 3821 acbe
000003c0: 0343 28be 96fc bfbe 3ed9 65bf bc8e e1be
000003d0: 5c1e 35be 218c 24be 4021 9fbe 82b3 a4be
000003e0: ba67 01be fdb4 0cbf 5b22 75bf e27d 57bf
000003f0: 5710 22bf 168f 80be 3c1e 9c3b 801e 17be
